models/model.pth (torch, 8000 bytes, 3 tensors)

linear.weight f4 [128, 10]
000000 a7 33 36 3e 17 ba 9f bd 51 94 2e be 0e 58 78 3c
       0.17793141 -0.07799166 -0.17048766 0.015157713
000010 40 11 98 3c 0d ed 0b 3e 65 0b 9c bd 78 fc 82 bd
       0.018562913 0.13664646 -0.07619361 -0.06395811
000020 af f8 c6 bd 73 dd a0 bd c9 e2 a3 3d 33 68 96 bc
       -0.097154014 -0.07854738 0.0800224 -0.018360233
000030 42 e1 71 bd 4e 04 84 bb f6 ef 9f bc e4 bb 3d 3d
       -0.059052713 -0.0040288335 -0.019523602 0.046321765
000040 db 8a 5d bc cd ce 3a 3d 84 84 92 3d 25 1e a0 bd
       -0.013521875 0.045607377 0.071541816 -0.078182496
000050 0c 50 a9 be da 0c 08 bf 98 72 2e 3f 04 15 39 3d
       -0.33068883 -0.5314461 0.68143606 0.045186058
000060 e9 61 f7 3e cd b0 c7 3d a0 b3 b3 be 1e 45 6a be
       0.48316887 0.09750519 -0.3509798 -0.22877929
000070 be 62 44 3e b4 54 47 be 25 5c 84 3d 6c b3 9f bc
       0.19178292 -0.19465905 0.06462888 -0.019494735
000080 ae 28 1c 3d db b6 a8 bd d2 75 16 3d f1 20 43 3c
       0.038124733 -0.08238002 0.036733456 0.011909709
000090 1b 8d b1 3c 74 fc 14 be 3b ff c2 3d 43 e5 b8 3d
       0.02167373 -0.14549428 0.095213376 0.09028103
0000a0 9f da b7 3f db 8d 49 3f 4b e3 d3 3c b9 ff ec bc
       1.4363593 0.7873208 0.025865218 -0.028930532
0000b0 10 6e c4 bd b4 73 6e bd 4b 59 98 be 98 c7 aa 3e
       -0.09591305 -0.05821581 -0.29755625 0.33355403
0000c0 a2 32 34 3b 5c 40 d1 bd a6 46 98 bd 3f 30 96 bd
       0.0027496 -0.10217354 -0.0743535 -0.07333421
0000d0 f2 bd 8e be 49 cd 21 3f 02 4f cb be a7 54 61 be
       -0.27879292 0.63203865 -0.39708716 -0.22004949
0000e0 8b f8 6b bf b1 1c 8a bf c0 7a 7b 3c 0d 96 67 3d
       -0.9217612 -1.0790006 0.01534909 0.056539584
0000f0 85 e3 fd 3c fb 98 16 3e 70 10 11 bd 60 2d ad bd
       0.030992279 0.14706795 -0.035416067 -0.0845592
000100 de df 60 3d 81 2e 88 bc f0 dd a8 bd 28 87 de bb
       0.054900996 -0.016623737 -0.08245456 -0.006791014
000110 1c a1 5c be e1 c1 e8 bd e3 68 59 3c 8a 3e 9a 3c
       -0.21545833 -0.113651045 0.013269636 0.01882865
000120 90 08 4f bd 3f cf 04 bd 5f 16 0c be a8 09 78 3a
       -0.050545275 -0.032424208 -0.13680409 0.0009461888
000130 26 e9 0e bd 6f 79 24 bd 8a 8f 20 bd 98 47 22 bd
       -0.034890316 -0.04015487 -0.03919939 -0.03961906
000140 80 4d 35 3d 56 04 14 bc 99 d9 b4 3c 09 99 9e bd
       0.044263363 -0.009034237 0.022076415 -0.07744033
000150 15 63 1e 3d 6b 67 42 3d 43 2e 94 3c 4b 99 ca bd
       0.03866871 0.04746191 0.018088466 -0.098925196
000160 3e d0 e5 bb ed e2 d5 3b d9 e4 0b 3c 53 4f db bd
       -0.00701335 0.006527296 0.008538448 -0.10708489
000170 28 c1 c7 3c 00 02 73 bd 62 35 22 3d 95 72 d4 3d
       0.024384096 -0.05932808 0.03960169 0.10373417
000180 2d 87 3f bc 87 bc 91 3d 7f e7 16 bd 71 0b d6 bb
       -0.011689943 0.07116037 -0.036841866 -0.0065321256
000190 fd 3e b4 3d 28 7b 91 3e a0 92 bf bd 83 a9 be be
       0.088010766 0.28414273 -0.093541384 -0.37238702
0001a0 7b 22 c4 3d 7f 41 ca 3e b5 69 a0 39 39 7d c2 3a
       0.09576889 0.39503095 0.00030596336 0.0014838345
0001b0 3e 68 82 3d 5f 65 20 3e d8 ac 0a 3f b6 65 87 bf
       0.06367539 0.1566367 0.5416999 -1.0577915
0001c0 b1 ee 29 bf 8d 39 29 3e 2e bd 29 be 38 be 7a 3f
       -0.6637984 0.1652586 -0.16576073 0.979465
0001d0 d9 bb ae 3d a6 aa 81 be ea 2e 88 bd e9 c2 0b 3c
       0.08531923 -0.25325507 -0.06649573 0.008530357
0001e0 5e 81 6d bd c7 db c2 bd ed e5 0a be 86 3a 8b bd
       -0.057984702 -0.095145755 -0.13564272 -0.06798272
0001f0 27 45 b8 3c d6 2e 4a 3d 7f 63 41 3d 73 cd fd 3c
       0.022493912 0.049361072 0.047214027 0.030981755
000200 00 89 fe 3d 98 aa 5e 3d 1e 19 05 3e 57 f8 47 3f
       0.124284744 0.05436191 0.12997863 0.7811331
000210 18 89 b6 be 63 61 4f 3e d1 41 92 3d 11 c9 1a 3e
       -0.3565147 0.20251994 0.0714146 0.15115763
000220 e3 4d d4 3d 85 05 11 be f4 f5 91 be b4 69 a3 be
       0.10366418 -0.14162262 -0.2850796 -0.31916583
000230 57 f6 6b 3c aa 0d 5f 3e ba 40 fc be de 06 98 bc
       0.014401994 0.21782556 -0.49268132 -0.018557962
000240 be 1d c6 bf 16 7f 22 3e 4c 51 bd bd d2 88 1e 3e
       -1.5477827 0.15868792 -0.09244022 0.1548188
000250 71 80 12 3e 36 8b 4c bc 23 22 63 3d 03 a7 f8 3d
       0.14306809 -0.012484362 0.055452477 0.1214123
000260 d5 1e 83 be 57 0d a7 bd d0 e1 e0 3b 3a f8 27 be
       -0.2560946 -0.08156841 0.0068628564 -0.16403285
000270 9d 5c 9a 3d 0e 92 12 bd 07 24 4e 3e cb c4 f8 bb
       0.07537196 -0.03578382 0.20130931 -0.007591819
000280 7b 61 c0 3d e3 3b 8d bd 48 75 57 be c6 b9 f8 3d
       0.09393593 -0.06896188 -0.21040833 0.121448085
000290 90 44 a0 bc 6c 7a a8 bc ee b2 8b bc 78 f9 41 be
       -0.019563943 -0.020566188 -0.017053094 -0.18942821
0002a0 10 c0 39 3e 4d 5b 47 bc d5 79 5f bc e2 6c 6c 3c
       0.18139672 -0.012167764 -0.013639887 0.014430257
0002b0 ed 15 67 3c d4 b3 9f 3d be fb c0 bc 9d 01 b5 bb
       0.014104349 0.07797971 -0.02355754 -0.005523874
0002c0 f8 43 a5 bd ac bd 6f bc 8a f0 a1 3a 6b b5 19 3d
       -0.08069605 -0.014632624 0.0012355011 0.03752653
0002d0 59 24 d7 3d 97 cc 00 3e dc e1 7b be 74 7f 90 3b
       0.1050498 0.12578045 -0.24597877 0.004409725
0002e0 c3 d9 4c 3e a9 d7 a1 3d 12 25 13 3d 0a 89 6e be
       0.20004945 0.07902462 0.035924025 -0.23294464
0002f0 07 b0 15 be bf 46 b9 3c 39 08 61 3e 97 bc 5b bd
       -0.1461793 0.022616742 0.21975793 -0.05364665
000300 c1 77 2d 3b d1 fe 5d 3d 00 11 35 3e 47 9d 30 3d
       0.0026469084 0.05419809 0.17682266 0.04311874
000310 7f 04 34 3d 9e 41 12 be ab 7b ec bc 48 6b a0 bd
       0.0439496 -0.14282843 -0.028867563 -0.07832962
000320 30 b9 31 3d 27 2c 98 bd 18 83 95 3e 41 78 0d 3d
       0.0433895 -0.074302964 0.2920158 0.03453851
000330 96 a6 75 3e 82 64 ea 3e 6d 23 0b bf 54 03 7a be
       0.23989329 0.45779806 -0.5435093 -0.24415332
000340 69 a3 d3 bd c9 b0 6d bf d5 f2 53 3d d2 da b2 3d
       -0.103339024 -0.9284788 0.051745255 0.08733143
000350 42 dc 92 bc 50 02 43 3d 2c e9 4b be c9 82 c2 3d
       -0.017927293 0.047609627 -0.19913167 0.094976015
000360 8e 12 23 be e0 69 cb bd 93 79 34 3d 07 51 ba be
       -0.15925047 -0.099323034 0.044061255 -0.36389944
000370 bd e2 83 3f 2d 48 19 be ba 13 96 bf 7c 1c 17 3e
       1.030357 -0.14968939 -1.172477 0.1475696
000380 8b 3b e0 bd 25 b0 19 3e 4c a3 80 be 5d cd 2e 3f
       -0.10948857 0.150086 -0.25124586 0.6828211
000390 50 f6 4e bd ee 6c a3 bd 03 0f 08 3e f6 84 db bc
       -0.05052787 -0.07979761 0.13286977 -0.0267968
0003a0 fd 1e dc be 98 e1 01 be 28 ad 4f 3e 0a c0 0b bb
       -0.42992392 -0.12683713 0.20280898 -0.002132418
0003b0 ff d5 9b 3e bf 64 95 3e f1 89 48 3e 2c 88 09 3c
       0.30436704 0.29178426 0.1958387 0.008394282
0003c0 ae 10 83 3c 6d 16 f1 3a 45 07 9d bd 57 26 ec bb
       0.015999164 0.0018393524 -0.07667402 -0.007206719
0003d0 a1 b6 2e bc 21 9e 47 3c 41 78 12 bc 60 f3 0d 3b
       -0.010663659 0.012183697 -0.008939804 0.0021659955
0003e0 87 24 23 bb c7 cd cb bb 79 75 7c be 6e 63 0e bd
       -0.0024893598 -0.006219599 -0.24654187 -0.034762792
0003f0 f2 c8 0f bf 5c 9d 80 bb 13 90 0f be 36 ae 7a 3c
       -0.56165993 -0.0039250087 -0.14019804 0.015300324

linear.bias f4 [128]
000000 54 1d 78 bf 40 d0 09 bf be 16 f5 bf f3 1f 49 bf
       -0.9691975 -0.5383339 -1.9147565 -0.78564376
000010 3d 82 01 be 40 92 37 bf 8e d8 83 bf 82 52 03 bf
       -0.12647338 -0.71707535 -1.0300462 -0.5129777
000020 bc a3 cc be ab 8d 00 bf 38 20 d1 bf b6 ea 5a 3e
       -0.3996867 -0.5021617 -1.6337957 0.21378598
000030 46 dc 6c bf 11 8a 18 c0 0a bf 14 c0 71 f1 a9 be
       -0.9252361 -2.383427 -2.32416 -0.33192018
000040 38 f9 a9 bf 07 84 06 bf d0 0c bf bf 35 86 56 bf
       -1.327918 -0.5254521 -1.4925785 -0.83798534
000050 13 21 15 bf a4 78 c7 bf 03 9c 17 c0 3f f1 bb bf
       -0.5825359 -1.5583692 -2.3688972 -1.4682997
000060 eb 2a 74 be f2 bb f7 bf 2d 01 04 bf ae fc 63 bf
       -0.23844497 -1.9354231 -0.51564294 -0.89057434
000070 33 36 1e bf 8e 13 a7 bf 0f 05 3c 3f 07 af cf be
       -0.6180145 -1.3052843 0.7344522 -0.40563223
000080 eb d9 db bf 69 cb a2 bf 0f 0a ca bf d4 1f bd bf
       -1.7175878 -1.2718326 -1.578432 -1.4775338
000090 b7 7b 5c bf 0a c5 e5 bf 29 b6 dc be 2a ee 4c bf
       -0.86126274 -1.7950757 -0.43107727 -0.8005091
0000a0 6f fb cb be f4 d7 76 bf 76 58 7b bf 14 b6 a2 bf
       -0.39840266 -0.9642327 -0.98181856 -1.2711816
0000b0 7e cc ad bf 59 a3 2d bf 1a 5b dc bf 7b 1e 0b c0
       -1.3578031 -0.67827374 -1.7215302 -2.1737354
0000c0 a5 ce d1 bf 57 9b 84 be 83 a4 07 c0 89 38 91 bf
       -1.6391188 -0.25899765 -2.119416 -1.1345378
0000d0 22 5c 3d bf a0 b8 ab bf db 0f 8f bf 9e 10 90 bf
       -0.7396871 -1.3415718 -1.1176714 -1.1255071
0000e0 3c 73 80 bf 05 fb a6 bf 78 5a 59 bf 3c a6 db bf
       -1.0035167 -1.3045355 -0.8490367 -1.7160106
0000f0 0e af 8a bf 26 3f 3f 3f 33 70 ef bf 3d 7e b5 bf
       -1.0834672 0.7470573 -1.8706115 -1.417915
000100 9c 5c fa be 3f 5e 36 bf a8 97 b3 bf 68 65 9d bf
       -0.4889878 -0.7123756 -1.4030657 -1.2296572
000110 96 88 5f bf 9e 4e 46 bf 18 74 4b bf 4c 03 4e bf
       -0.8731779 -0.7746371 -0.7947402 -0.8047378
000120 8d 42 99 bf 1c ad f2 be 00 9c e5 be cb 5b 8c bf
       -1.1973435 -0.47397697 -0.4484558 -1.0965513
000130 9a 9b dd bf 66 1f 86 bf d5 67 1a c0 19 f0 f6 be
       -1.7313111 -1.0478332 -2.4125874 -0.48230055
000140 77 c7 34 bf 6c 53 58 bf 1e 15 0b bf 67 43 49 bf
       -0.7061686 -0.8450229 -0.543291 -0.7861847
000150 1f 91 90 bf 69 5b 24 bf e9 e5 7a bf e9 a2 95 bf
       -1.1294287 -0.6420198 -0.98007065 -1.1690341
000160 5a ec 88 bf 64 ab 0a c0 75 38 c1 bf 86 2a c3 bf
       -1.0697129 -2.1667109 -1.5095354 -1.5247352
000170 4b 7b 55 bf 30 5e c7 bf 55 3d e4 be aa f7 b7 bf
       -0.83391255 -1.5575619 -0.44578043 -1.4372456
000180 21 01 86 bf 92 2a e3 be 78 80 0e c0 f2 f4 99 be
       -1.0469095 -0.44368416 -2.226591 -0.3006969
000190 c4 46 59 3d 79 1d 88 bf 9b 40 b3 bf 3c dd 69 bf
       0.053046003 -1.0633994 -1.4004091 -0.913532
0001a0 62 24 d8 be 01 88 07 c0 31 d0 95 bf 8c 56 10 bf
       -0.42215258 -2.117676 -1.170416 -0.5638206
0001b0 42 87 71 bf ce fc 1d bf 0b 87 26 c0 a6 87 7a bf
       -0.9434701 -0.61713874 -2.6019924 -0.97863233
0001c0 02 5f dd bf 84 59 c5 bf 51 46 31 bf d1 0a 05 c0
       -1.7294619 -1.5417943 -0.6924792 -2.0787852
0001d0 09 c3 e9 be f4 5f bc bf ab 2c fa bf 1b f2 46 bf
       -0.45656613 -1.4716783 -1.9544882 -0.77713174
0001e0 21 74 ab bf 1f d1 fa be 43 17 5e bf 0b 56 0c c0
       -1.3394815 -0.48987672 -0.86754245 -2.1927516
0001f0 66 19 4a 3f b2 d7 d5 bf 62 28 8b bf ce d2 48 bf
       0.78945005 -1.670645 -1.0871699 -0.7844666

linear1.weight f4 [1, 128]
000000 08 a7 18 3d 00 ad 19 bc 75 8a 6e 3d e1 2a 4b bd
       0.03726867 -0.009379625 0.05823751 -0.04960144
000010 f7 2f 3d 3e 7e be 09 be a8 1a 8f 3c 5c 34 83 bb
       0.18475328 -0.13451573 0.017468765 -0.0040040445
000020 c3 a4 47 3c e5 34 b5 3b c2 f6 0d 3b 9c e7 34 be
       0.012185278 0.005529987 0.0021661972 -0.17666477
000030 39 03 da bc a8 a2 03 3e 83 dd 5c be 50 39 a2 3a
       -0.026612865 0.12855017 -0.21568875 0.00123767
000040 e2 35 b8 bd 61 72 19 3a 98 1b 46 bc 11 8f 8f bb
       -0.08994652 0.00058535306 -0.01209154 -0.0043810685
000050 15 65 6b bd ba 5e 56 bd 9e 74 a6 be 42 7b 1b 3c
       -0.057469446 -0.052336432 -0.32510847 0.009489836
000060 8b f5 15 3c 02 b7 1c be 32 a6 08 bb 15 f3 cf 3c
       0.00915278 -0.15304187 -0.0020851013 0.025384465
000070 8e a7 e4 ba e4 bb 72 3e 85 6e 27 be 73 e4 24 bd
       -0.0017444955 0.23704487 -0.16350754 -0.04025693
000080 73 d4 ac bc 4e e9 2f bd 16 bc 99 3d 21 d8 19 3e
       -0.021097397 -0.042947106 0.07506578 0.15023853
000090 73 7f 86 ba 88 6b 00 bd 56 6a 64 ba 4a d5 e7 3b
       -0.0010261371 -0.03135255 -0.0008713355 0.0070749866
0000a0 a4 84 1e 3b e4 77 fd 3b 5f 53 b4 3c 3b 63 c1 3d
       0.0024187947 0.0077352393 0.02201241 0.09442755
0000b0 31 d3 0d 3c da 90 f9 bc 05 2c 31 3e 12 93 87 3d
       0.008656309 -0.030464578 0.17301948 0.06619848
0000c0 b0 7b ff bd 7d 00 08 3b 5b 16 fc 3d 70 bd 88 bb
       -0.124747634 0.0020752244 0.123089515 -0.0041729733
0000d0 a2 4a 72 3b 25 71 89 3d 8f f3 62 3b 61 4f 46 3e
       0.0036970754 0.06711034 0.0034630036 0.19366218
0000e0 51 41 8e bb b9 bb 46 bd b3 a3 11 bd 9d 04 ac bb
       -0.0043412824 -0.04851887 -0.035556506 -0.0052495734
0000f0 54 7a 3c 3c b1 17 23 be ee ed b3 3d ae 0d ac 3a
       0.011503775 -0.15927006 0.08785616 0.0013126635
000100 ea 24 eb 3d fc e1 36 3c 36 67 fc 3d f2 fd 90 3d
       0.1148165 0.011162277 0.123243734 0.07079686
000110 27 07 c3 3d a9 00 0b 3c 6b 8a fe 3c c2 16 02 bc
       0.095228486 0.008484044 0.031071862 -0.007939996
000120 51 ea a0 3d d5 2e 13 bb f1 04 eb 39 61 00 9f 3c
       0.07857192 -0.0022458334 0.00044826375 0.01940936
000130 1b 9b f8 ba 85 0c 28 3d 31 07 0d be 1e 2d 7c 3c
       -0.0018967123 0.041027565 -0.13772275 0.015391616
000140 2f a7 3e bd a4 47 ac 3b 8f b6 85 38 c6 35 87 3b
       -0.046546157 0.0052575637 6.3759384e-05 0.0041262833
000150 68 d5 0f bc 20 27 c5 3b 22 47 e8 bc 66 05 aa 3d
       -0.008778907 0.006016627 -0.028354231 0.08301811
000160 96 de 1b 3e 64 28 35 3d 59 e7 1f 3d c9 9e 1e bc
       0.15221629 0.044227973 0.03903899 -0.009681412
000170 d1 a2 96 3a ba f7 28 3e c5 9a ad bc 38 b7 62 bd
       0.0011492615 0.1650075 -0.021191964 -0.055350512
000180 27 11 b1 ba 88 0c 4c 3b 3f 2d 18 be 6f db 5e 3a
       -0.001350914 0.00311354 -0.1486101 0.0008501326
000190 22 96 fb 3d 49 e1 39 bd 3d f8 1c bd b6 37 72 3a
       0.12284495 -0.045380864 -0.038322676 0.0009239869
0001a0 b5 99 78 bb 80 82 59 be e7 37 08 bc 7e f2 ff bc
       -0.0037933413 -0.21241188 -0.008314109 -0.031243559
0001b0 fc e2 ae 3c 14 d8 95 3b 25 eb 95 3d b9 3b fc bd
       0.021348469 0.0045728777 0.07320241 -0.12316079
0001c0 5b 31 81 3d 30 eb 37 be c1 a8 33 3d c1 84 d0 3c
       0.06308242 -0.1796081 0.04386211 0.025453927
0001d0 ce 1c 21 3c e9 c4 a4 3d 88 1e e8 bd f4 1b 09 3a
       0.009833528 0.0804537 -0.113339484 0.00052303006
0001e0 11 18 84 bd c9 ab 51 3c f2 ef 00 3d 38 11 15 3b
       -0.06449903 0.012797304 0.03147883 0.002274586
0001f0 77 c2 83 3e 2a 12 92 bd d5 ad 90 3d d6 53 54 3d
       0.25734302 -0.07132371 0.07064406 0.051837765
